…
ffersize (optional)See nditer parameters of the same name\n\n\n\nReturns\n\niterstuple of nditerAn nditer for each item in axes, outermost first\n\n\n\n\n\nSee also\nnditer\n\nExamples\nBasic usage. Note how y is the \u201cflattened\u201d version of\n[a[:, 0, :], a[:, 1, 0], a[:, 2, :]] since we specified\nthe first iter\u2019s axes as [1]\n&gt;&gt;&gt; a = np.arange(12).reshape(2, 3, 2)\n&gt;&gt;&gt; i, j = np.nested_iters(a, [[1], [0, 2]], flags=[\"multi_index\"])\n&gt;&gt;&gt; for x in i:\n...      print(i.multi_index)\n...      for y in j:\n...          print('', j.multi_index, y)\n(0,)\n (0, 0) 0\n (0, 1) 1\n (1, 0) 6\n (1, 1) 7\n(1,)\n (0, 0) 2\n (0, 1) 3\n (1, 0) 8\n (1, 1) 9\n(2,)\n (0, 0) 4\n (0, 1) 5\n (1, 0) 10\n (1, 1) 11\n\n\n", "parameters": ["Parameters", "opndarray or sequence of array_like", "axeslist of list of int", "flags, op_flags, op_dtypes, order, casting, buffersize (optional)", "Returns", "iterstuple of nditer"], "returns": "iterstuple of nditerAn nditer for each item in axes, outermost first", "examples": ["; a = np.arange(12).reshape(2, 3, 2)\n; i, j = np.nested_iters(a, [[1], [0, 2]], flags=[\"multi_index\"])\n; for x in i:\n...      print(i.multi_index)\n...      for y in j:\n...          print('', j.multi_index, y)\n(0,)\n (0, 0) 0\n (0, 1) 1\n (1, 0) 6\n (1, 1) 7\n(1,)\n (0, 0) 2\n (0, 1) 3\n (1, 0) 8\n (1, 1) 9\n(2,)\n (0, 0) 4\n (0, 1) 5\n (1, 0) 10\n (1, 1) 11\n\n", "; a = np.arange(12).reshape(2, 3, 2)\n; i, j = np.nested_iters(a, [[1], [0, 2]], flags=[\"multi_index\"])\n; for x in i:\n...      print(i.multi_index)\n...      for y in j:\n...          print('', j.multi_index, y)\n(0,)\n (0, 0) 0\n (0, 1) 1\n (1, 0) 6\n (1, 1) 7\n(1,)\n (0, 0) 2\n (0, 1) 3\n (1, 0) 8\n (1, 1) 9\n(2,)\n (0, 0) 4\n (0, 1) 5\n (1, 0) 10\n (1, 1) 11\n"]},
{"library": "numpy", "item_id": "numpy.random.RandomState.negative_binomial", "code": "\nRandomState.negative_binomial(n, p, size=None)\u00b6", "description": "Draw samples from a negative binomial distribution.\nSamples are drawn from a negative binomial distribution with specified\nparameters, n successes and p probability of success where n\nis &gt; 0 and p is in the interval [0, 1].\n\n
…
{"library": "numpy", "item_id": "numpy.ma.resize", "code": "\nnumpy.ma.resize(x, new_shape)[source]\u00b6", "description": "Return a new masked array with the specified size and shape.\nThis is the masked equivalent of the numpy.resize function. The new\narray is filled with repeated copies of x (in the order that the\ndata are stored in memory). If x is masked, the new array will be\nmasked, and the new mask will be a repetition of the old one.\n\nSee also\n\nnumpy.resizeEquivalent function in the top level NumPy module.\n\n\n\nExamples\n&gt;&gt;&gt; import numpy.ma as ma\n&gt;&gt;&gt; a = ma.array([[1, 2] ,[3, 4]])\n&gt;&gt;&gt; a[0, 1] = ma.masked\n&gt;&gt;&gt; a\nmasked_array(\n  data=[[1, --],\n        [3, 4]],\n  mask=[[False,  True],\n        [False, False]],\n  fill_value=999999)\n&gt;&gt;&gt; np.resize(a, (3, 3))\nmasked_array(\n  data=[[1, 2, 3],\n        [4, 1, 2],\n        [3, 4, 1]],\n  mask=False,\n  fill_value=999999)\n&gt;&gt;&gt; ma.resize(a, (3, 3))\nmasked_array(\n  data=[[1, --, 3],\n        [4, 1, --],\n        [3, 4, 1]],\n  mask=[[False,  True, False],\n        [False, False,  True],\n        [False, False, False]],\n  fill_value=999999)\n\n\nA MaskedArray is always returned, regardless of the input type.\n&gt;&gt;&gt; a = np.array([[1, 2] ,[3, 4]])\n&gt;&gt;&gt; ma.resize(a, (3, 3))\nmasked_array(\n  data=[[1, 2, 3],\n        [4, 1, 2],\n        [3, 4, 1]],\n  mask=False,\n  fill_value=999999)\n\n\n", "parameters": [], "returns": [], "examples": ["; import numpy.ma as ma\n; a = ma.array([[1, 2] ,[3, 4]])\n; a[0, 1] = ma.masked\n; a\nmasked_array(\n  data=[[1, --],\n        [3, 4]],\n  mask=[[False,  True],\n        [False, False]],\n  fill_value=999999)\n; np.resize(a, (3, 3))\nmasked_array(\n  data=[[1, 2, 3],\n        [4, 1, 2],\n        [3, 4, 1]],\n  mask=False,\n  fill_value=999999)\n; ma.resize(a, (3, 3))\nmasked_array(\n  data=[[1, --, 3],\n        [4, 1, --],\n        [3, 4, 1]],\n  mask=[[False,  True, False],\n        [False, False,  True],\n        [False, False, False]],\n  fill_value=999999)\n\n", "; import numpy.ma as ma\n; a = ma.array([[1, 2] ,[3, 4]])\n; a[0, 1] = ma.masked\n; a\nmasked_array(\n  data=[[1, --],\n        [3, 4]],\n  mask=[[False,  True],\n        [False, False]],\n  fill_value=999999)\n; np.resize(a, (3, 3))\nmasked_array(\n  data=[[1, 2, 3],\n        [4, 1, 2],\n        [3, 4, 1]],\n  mask=False,\n  fill_value=999999)\n; ma.resize(a, (3, 3))\nmasked_array(\n  data=[[1, --, 3],\n        [4, 1, --],\n        [3, 4, 1]],\n  mask=[[False,  True, False],\n        [False, False,  True],\n        [False, False, False]],\n  fill_value=999999)\n", "; a = np.array([[1, 2] ,[3, 4]])\n; ma.resize(a, (3, 3))\nmasked_array(\n  data=[[1, 2, 3],\n        [4, 1, 2],\n        [3, 4, 1]],\n  mask=False,\n  fill_value=999999)\n\n", "; a = np.array([[1, 2] ,[3, 4]])\n; ma.resize(a, (3, 3))\nmasked_array(\n  data=[[1, 2, 3],\n        [4, 1, 2],\n        [3, 4, 1]],\n  mask=False,\n  fill_value=999999)\n"]},
{"library": "numpy", "item_id": "numpy.resize", "code": "\nnumpy.resize(a, new_shape)[source]\u00b6", "description": "Return a new array with the specified shape.\nIf the new array is larger than the original array, then the new\narray is filled wi
…
x.ndim\n1\n\n", "; x = np.dtype((float, 8))\n; x.ndim\n1\n", "; x = np.dtype(('i4', (3, 4)))\n; x.ndim\n2\n\n", "; x = np.dtype(('i4', (3, 4)))\n; x.ndim\n2\n"]},
{"library": "numpy", "item_id": "numpy.ndenumerate", "code": "\nclass numpy.ndenumerate(arr)[source]\u00b6", "description": "Multidimensional index iterator.\nReturn an iterator yielding pairs of array coordinates and values.\n\nParameters\n\narrndarrayInput array.\n\n\n\n\n\nSee also\nndindex, flatiter\n\nExamples\n&gt;&gt;&gt; a = np.array([[1, 2], [3, 4]])\n&gt;&gt;&gt; for index, x in np.ndenumerate(a):\n...     print(index, x)\n(0, 0) 1\n(0, 1) 2\n(1, 0) 3\n(1, 1) 4\n\n\nMethods\n\n\n\n\n\n\nnext(self)\nStandard iterator method, returns the index tuple and array value.\n\n\n\n", "parameters": ["Parameters", "arrndarray"], "returns": [], "examples": ["; a = np.array([[1, 2], [3, 4]])\n; for index, x in np.ndenumerate(a):\n...     print(index, x)\n(0, 0) 1\n(0, 1) 2\n(1, 0) 3\n(1, 1) 4\n\n", "; a = np.array([[1, 2], [3, 4]])\n; for index, x in np.ndenumerate(a):\n...     print(index, x)\n(0, 0) 1\n(0, 1) 2\n(1, 0) 3\n(1, 1) 4\n"]},
{"library": "numpy", "item_id": "numpy.lib.mixins.NDArrayOperatorsMixin", "code": "\nclass numpy.lib.mixins.NDArrayOperatorsMixin[source]\u00b6", "description": "Mixin defining all operator special methods using __array_ufunc__.\nThis class implements the special methods for almost all of Python\u2019s\nbuiltin operators defined in the operator module, including comparisons\n(==, &gt;, etc.
…
