…
       idx = gate[0]\n\n            exp_gate = gate[1]\n            res_gate = rec.queue[idx]\n            assert isinstance(res_gate, exp_gate)\n\n            exp_wires = gate[2]\n            res_wires = rec.queue[idx]._wires\n            assert res_wires == Wires(exp_wires)\n\n            exp_weight = gate[3]\n            res_weight = rec.queue[idx].parameters\n            assert res_weight == exp_weight\n\n    @pytest.mark.parametrize(\n        (""weight"", ""pphh"", ""msg_match""),\n        [\n            ( 0.2      , [0]                  , ""expected 4 wires""),\n            ( 0.2      , [0, 1]               , ""expected 4 wires""),\n            ( 0.2      , [0, 1, 2, 3, 4]      , ""expected 4 wires""),\n            ( 0.2      , []                   , ""expected 4 wires""),\n            ([0.2, 1.1], [0, 2, 4, 6]         , ""\'weight\' must be of shape""),\n            ( 0.2      , [1, 0, 6, 3]         , ""wires_3 > wires_2 > wires_1 > wires_0""),\n            ( 0.2      , [1, 0, 3, 6]         , ""wires_3 > wires_2 > wires_1 > wires_0"")\n        ]\n    )\n    def test_double_excitation_unitary_exceptions(self, weight, pphh, msg_match):\n        """"""Test that DoubleExcitationUnitary throws an exception if ``weight`` or \n        ``pphh`` parameter has illegal shapes, types or values.""""""\n        dev = qml.device(""default.qubit"", wires=10)\n\n        def circuit(weight=weight, wire
…
