…
                    batch_size=BATCH_SIZE,\n                          shuffle=True)\n\nprint(len(train_dataset))\nprint(len(train_loader))'"
basis/py/fine_tune.py,5,"b'# 1.\xe5\xaf\xb9\xe5\xb1\x82\xe8\xbf\x9b\xe8\xa1\x8c\xe5\xa4\x84\xe7\x90\x86\n\n# \xe7\x8e\xb0\xe5\x9c\xa8\xef\xbc\x8c\xe6\x88\x91\xe4\xbb\xac\xe5\xbe\x97\xe5\x88\xb0\xe4\xba\x86\xe4\xb8\x80\xe4\xb8\xaa LeNet\xef\xbc\x8c\xe5\xae\x9e\xe4\xbe\x8b\xe5\x8c\x96\xe4\xb9\x8b\xe5\x90\x8e\xe6\x89\x93\xe5\x8d\xb0\xef\xbc\x8c\xe7\xbb\x93\xe6\x9e\x9c\xe5\xa6\x82\xe4\xb8\x8b\xe6\x89\x80\xe7\xa4\xba\xef\xbc\x9a\n\n# ```\n# LeNet5(\n#   (conv1): Conv2d(224, 6, kernel_size=(5, 5), stride=(1, 1), padding=(2, 2))\n#   (conv2): Conv2d(6, 16, kernel_size=(5, 5), stride=(1, 1))\n#   (fc1): Linear(in_features=400, out_features=120, bias=True)\n#   (fc2): Linear(in_features=120, out_features=84, bias=True)\n#   (fc3): Linear(in_features=84, out_features=10, bias=True)\n# )\n# ```\n\n# \xe7\x84\xb6\xe5\x90\x8e\xef\xbc\x8c\xe6\x88\x91\xe4\xbb\xac\xe7\x8e\xb0\xe5\x9c\xa8\xe9\x9c\x80\xe8\xa6\x81\xe6\x8a\x8a\xe6\x89\x80\xe6\x9c\x89\xe7\x9a\x84\xe5\xb8\xa6\xe6\x9c\x89 ""conv"" \xe7\x9a\x84\xe5\xb1\x82\xe5\x85\xa8\xe9\x83\xa8\xe5\x88\xa0\xe9\x99\xa4\xef\xbc\x88\xe6\x9b\xbf\xe6\x8d\xa2\xef\xbc\x89\xe6\x88\x91\xe4\xbb\xac\xe8\
…
e7\xad\x89\xe5\xbe\x85\xe5\x88\xa0\xe9\x99\xa4\xe5\x88\x97\xe8\xa1\xa8\xe4\xb8\xad\n    if re.match(""conv"", name) != None:\n        del_list.append(name)\n\n# \xe8\x8e\xb7\xe5\x8f\x96\xe4\xba\x86\xe6\x89\x80\xe6\x9c\x89\xe5\xb8\xa6 ""conv"" \xe5\xb1\x82\xe7\x9a\x84\xe5\x90\x8d\xe5\xad\x97\xe4\xba\x86\xef\xbc\x8c\xe7\x8e\xb0\xe5\x9c\xa8\xe5\xbc\x80\xe5\xa7\x8b\xe5\x88\xa0\xe9\x99\xa4\nfor name in del_list:\n    delattr(lenet, name)\n\n\n\n\n# print(lenet) \xe5\xbe\x97\xe5\x88\xb0\xe7\x9a\x84\xe7\xbb\x93\xe6\x9e\x9c\xe5\xa6\x82\xe4\xb8\x8b\xe6\x89\x80\xe7\xa4\xba\n\n# ```\n# LeNet5(|\n#   (fc1): Linear(in_features=400, out_features=120, bias=True)\n#   (fc2): Linear(in_features=120, out_features=84, bias=True)\n#   (fc3): Linear(in_features=84, out_features=10, bias=True)\n# )\n# ```\n\n# ----------------------------------------------- \xe5\x88\x86\xe5\x89\xb2\xe7\xba\xbf ---------------------------------------------------------\n\n# 2.\xe6\x94\xb9\xe5\x8f\x98\xe9\xa2\x84\xe8\xae\xad\xe7\xbb\x83\xe6\xa8\xa1\xe5\x9e\x8b\xe4\xb8\xad\xe7\x9a\x84\xe6\x9f\x90 sequential \xe5\xb1\x82\xe9\x87\x8c\xe9\x9d\xa2\xe7\x9a\x84\xe6\x9f\x90\xe4\xb8\x80\xe5\xb1\x82\n\n# \xe8\xbf\x99\xe9\x87\x8c\xe6\x88\x91\xe4\xbb\xac\xe4\xbb\xa5Alexnet\xe4\xb8\xba\xe4\xbe\x8b\n\n# ```\n# AlexNet(\n#   (features): Sequential(\n#     (0): Conv2d(3, 64, kernel_size=(11, 11), stride=(4, 4), padding=(2, 2))\n#     (1): ReLU(inplace)\n#     (2): MaxPool2d(kernel_size=(3, 3), stride=(2, 2), dilation=(1, 1), ceil_mode=False)\n#     (3): Conv2d(64, 192, kernel_size=(5, 5), stride=(1, 1), padding=(2, 2))\n#     (4): ReLU(inplace)\n#     (5): MaxPool2d(kernel_size=(3, 3), stride=(2, 2), dilation=(1, 1), ceil_mode=False)\n#     (6): Conv2d(192, 384, kernel_size=(3, 3), stride=(1, 1), padding=(1, 1))\n#     (7): ReLU(inplace)\n#     (8): Conv2d(384, 256, kernel_size=(3, 3), stride=(1, 1), padding=(1, 1))\n#     (9): ReLU(inplace)\n#     (10): Conv2d(256, 256, kernel_size=(3, 3), stride=(1, 1), padding=(1, 1))\n#     (11): ReLU(inplace)\n#     (12): MaxPool2d(kernel_size=(3, 3), stride=(2, 2), dilation=(1, 1), ceil_mode=False)\n#   )\n#   (classifier): Sequential(\n#     (0): Dropout(p=0.5)\n#     (1): Linear(in_features=9216, out_features=4096, bias=True)\n#     (2): ReLU(inplace)\n#     (3): Dropout(p=0.5)\n#     (4): Linear(in_features=4096, out_features=4096, bias=True)\n#     (5): ReLU(inplace)\n#     (6): Linear(in_features=4096, out_features=1000, bias=True)\n#   )\n# )\n# ```\n\n# \xe6\x9f\x90\xe4\xb8\x80\xe5\xa4\xa9\xef\xbc\x8c\xe6\x88\x91\xe4\xbb\xac\xe7\xaa\x81\xe7\x84\xb6\xe5\x8f\x91\xe7\x8e\xb0\xe4\xba\x86 AvgPool \xe7\x9a\x84\xe6\x95\x88\xe6\x9e\x9c\xe6\xaf\x94 Maxpool \xe8\xa6\x81\xe5\xa5\xbd\xef\xbc\x8c\xe4\xba\x8e\xe6\x98\xaf\xe6\x88\x91\xe4\xbb\xac\xe6\x83\xb3\xe8\xa6\x81\xe6\x94\xb9\xe5\x8f\x
…
