…
batch\'):\n        if norm_type == \'batch\':\n            norm_layer = functools.partial(nn.BatchNorm2d, affine=True)\n        elif norm_type == \'instance\':\n            norm_layer = functools.partial(nn.InstanceNorm2d, affine=False)\n        elif norm_type == \'batchnorm2d\':\n            norm_layer = nn.BatchNorm2d\n        else:\n            raise NotImplementedError(\'normalization layer [%s] is not found\' % norm_type)\n\n        return norm_layer\n\n    def forward(self, *input):\n        raise NotImplementedError\n\n\nclass Vgg19(nn.Module):\n    """"""\n    Sequential(\n          (0): Conv2d(3, 64, kernel_size=(3, 3), stride=(1, 1), padding=(1, 1))\n\n          (1): ReLU(inplace)\n          (2): Conv2d(64, 64, kernel_size=(3, 3), stride=(1, 1), padding=(1, 1))\n          (3): ReLU(inplace)\n          (4): MaxPool2d(kernel_size=2, stride=2, padding=0, dilation=1, ceil_mode=False)\n          (5): Conv2d(64, 128, kernel_size=(3, 3), stride=(1, 1), padding=(1, 1))\n\n          (6): ReLU(inplace)\n          (7): Conv2d(128, 128, kernel_size=(3, 3), stride=(1, 1), padding=(1, 1))\n          (8): ReLU(inplace)\n          (9): MaxPool2d(kernel_size=2, stride=2, padding=0, dilation=1, ceil_mode=False)\n          (10): Conv2d(128, 256, kernel_size=(3, 3), stride=(1, 1), padding=(1, 1))\n\n          (11): ReLU(inplace)\n          (12): Conv2d(256, 256, kernel_size=(3, 3), stride=(1, 1), padding=(1, 1))\n          (13): ReLU(inplace)\n          (14): Conv2d(256, 256, kernel_size=(3, 3), stride=(1, 1), padding=(1, 1))\n          (15): ReLU(inplace)\n          (16): Conv2d(256, 256, kernel_size=(3, 3), stride=(1, 1), padding=(1, 1))\n          (17): ReLU(inplace)\n          (18): MaxPool2d(kernel_size=2, stride=2, padding=0, dilation=1, ceil_mode=False)\n          (19): Conv2d(256, 512, kernel_size=(3, 3), stride=(1, 1), padding=(1, 1))\n\n          (20): ReLU(inplace)\n          (21): Conv2d(512, 512, kernel_size=(3, 3), stride=(1, 1), padding=(1, 1))\n          (22): ReLU(inplace)\n          (23): Conv2d(512, 512, kernel_size=(3, 3), stride=(1, 1), padding=(1, 1))\n          (24): ReLU(inplace)\n          (25): Conv2d(512, 512, kernel_size=(3, 3), stride=(1, 1), padding=(1, 1))\n          (26): ReLU(inplace)\n          (27): MaxPool2d(kernel_size=2, stride=2, padding=0, dilation=1, ceil_mode=False)\n          (28): Conv2d(512, 512, kernel_size=(3, 3), stride=(1, 1), padding=(1, 1))\n\n          (29): ReLU(inplace)\n          xxxx(30): Conv2d(512, 512, kernel_size=(3, 3), stride=(1, 1), padding=(1, 1))\n          xxxx(31): ReLU(inplace)\n          xxxx(32): Conv2d(512, 512, kernel_size=(3, 3), stride=(1, 1), padding=(1, 1))\n          xxxx(33): ReLU(inplace)\n          xxxx(34): Conv2d(512, 512, kernel_size=(3, 3), stride=(1, 1), padding=(1, 1))\n          xxxx(35): ReLU(inplace)\n          xxxx(36): MaxPool2d(kernel_size=2, stride=2, padding=0, dilation=1, ceil_mode=False)\n    )\n    """"""\n\n    def __init__(self, requires_grad=False, before_relu=False):\n        super(Vgg19, self).__init__()\n        vgg_pretrained_features = models.vgg19(pretrained=True).features\n        
…
